Experiment will be saved at: results/cartnet_lite_multimodal_gate_late_cl003_textdrop020_mbj_seed123_300ep/123
CartNet(
  (encoder): Encoder(
    (embedding): Embedding(119, 512)
    (activation): SiLU(inplace=True)
    (encoder_atom): Sequential(
      (0): SiLU(inplace=True)
      (1): Linear(512, 256, bias=True)
      (2): SiLU(inplace=True)
    )
    (encoder_edge): Sequential(
      (0): Linear(67, 512, bias=True)
      (1): SiLU(inplace=True)
      (2): Linear(512, 256, bias=True)
      (3): SiLU(inplace=True)
    )
    (rbf): ExpNormalSmearing(
      (cutoff_fn): CosineCutoff()
    )
  )
  (layers): Sequential(
    (0): CartNet_layer()
    (1): CartNet_layer()
    (2): CartNet_layer()
    (3): CartNet_layer()
  )
  (middle_fusion_modules): ModuleDict(
    (layer_2): MiddleFusionModule(
      (text_transform): Sequential(
        (0): Linear(in_features=128, out_features=256, bias=True)
        (1): ReLU()
        (2): Dropout(p=0.1, inplace=False)
        (3): Linear(in_features=256, out_features=256, bias=True)
      )
      (gate_norm): LayerNorm((512,), eps=1e-05, elementwise_affine=True)
      (gate): Sequential(
        (0): Linear(in_features=512, out_features=256, bias=True)
        (1): Sigmoid()
      )
      (layer_norm): LayerNorm((256,), eps=1e-05, elementwise_affine=True)
      (dropout): Dropout(p=0.1, inplace=False)
    )
  )
  (text_projection): ProjectionHead(
    (projection): Linear(in_features=768, out_features=128, bias=True)
    (gelu): GELU(approximate='none')
    (fc): Linear(in_features=128, out_features=128, bias=True)
    (dropout): Dropout(p=0.1, inplace=False)
    (layer_norm): LayerNorm((128,), eps=1e-05, elementwise_affine=True)
  )
  (contrastive_graph_projection): ProjectionHead(
    (projection): Linear(in_features=256, out_features=128, bias=True)
    (gelu): GELU(approximate='none')
    (fc): Linear(in_features=128, out_features=128, bias=True)
    (dropout): Dropout(p=0.1, inplace=False)
    (layer_norm): LayerNorm((128,), eps=1e-05, elementwise_affine=True)
  )
  (contrastive_text_projection): ProjectionHead(
    (projection): Linear(in_features=128, out_features=128, bias=True)
    (gelu): GELU(approximate='none')
    (fc): Linear(in_features=128, out_features=128, bias=True)
    (dropout): Dropout(p=0.1, inplace=False)
    (layer_norm): LayerNorm((128,), eps=1e-05, elementwise_affine=True)
  )
  (head): MultimodalScalarHead(
    (graph_projection): ProjectionHead(
      (projection): Linear(in_features=256, out_features=128, bias=True)
      (gelu): GELU(approximate='none')
      (fc): Linear(in_features=128, out_features=128, bias=True)
      (dropout): Dropout(p=0.1, inplace=False)
      (layer_norm): LayerNorm((128,), eps=1e-05, elementwise_affine=True)
    )
    (fusion_module): GatedFusion(
      (gate_graph): Sequential(
        (0): Linear(in_features=128, out_features=64, bias=True)
        (1): ReLU()
        (2): Dropout(p=0.1, inplace=False)
        (3): Linear(in_features=64, out_features=1, bias=True)
        (4): Sigmoid()
      )
      (gate_text): Sequential(
        (0): Linear(in_features=128, out_features=64, bias=True)
        (1): ReLU()
        (2): Dropout(p=0.1, inplace=False)
        (3): Linear(in_features=64, out_features=1, bias=True)
        (4): Sigmoid()
      )
      (graph_transform): Linear(in_features=128, out_features=128, bias=True)
      (text_transform): Linear(in_features=128, out_features=128, bias=True)
      (fusion_transform): Sequential(
        (0): Linear(in_features=128, out_features=128, bias=True)
        (1): LayerNorm((128,), eps=1e-05, elementwise_affine=True)
        (2): ReLU()
        (3): Dropout(p=0.1, inplace=False)
      )
    )
    (MLP): Linear(in_features=128, out_features=1, bias=True)
  )
)
Number of parameters: 3010307
Early stopping disabled.
train: {'epoch': 0, 'time_epoch': 3.5022, 'eta': 1047.1697, 'eta_hours': 0.2909, 'loss': 1.3342624764071607, 'lr': 0.0002774735809604179, 'params': 3010307, 'time_iter': 0.0307, 'r2': 0.17164373397827148, 'spearmanr': 0.5891498365288168, 'MAE': 1.2008247297875076, 'MSE': 4.441097366243745}
...computing epoch stats took: 0.01s
…
